emotion_model.tflite (tflite, 193404 bytes, 10 tensors)

sequential/conv1d/BiasAdd/ReadVariableOp f4 [64]
0	0x00000000	0.0
1	0x3bf089f2	0.007340663
2	0xbbb9fb4a	-0.005675708
3	0x00000000	0.0
4	0xbafdd498	-0.0019365726
5	0xbb48284d	-0.00305416
6	0xbbb3a1b1	-0.0054819216
7	0x00000000	0.0
8	0x3b350b72	0.002762523
9	0xbd250885	-0.040291328
10	0xbc5bafc9	-0.01340861
11	0xbb33a4bc	-0.0027411422
12	0xbc5a2f12	-0.0133168865
13	0xbbd4affd	-0.006490706
14	0xbb9250dc	-0.0044652056
15	0x00000000	0.0
16	0xbbcd0e36	-0.0062577976
17	0xbbb5963f	-0.0055415924
18	0xbc68a6d7	-0.014199934
19	0xbc222912	-0.009897487
20	0x00000000	0.0
21	0xbc8bc90a	-0.017063636
22	0xbc2beb99	-0.010493183
23	0xbb9e924d	-0.0048392178
24	0x3ce1f563	0.02758283
25	0xbbdd5eaa	-0.0067556696
26	0xbc6ce920	-0.014459878
27	0xbc33cf56	-0.010974726
28	0xbbf72b73	-0.0075430213
29	0x3b50e32f	0.0031873693
30	0xbba46fa8	-0.0050181933
31	0xbc8cb06f	-0.017173974
32	0xbc2dd008	-0.010608681
33	0xbbc3f330	-0.005979918
34	0xbc167cf9	-0.009185069
35	0xbc7d0f36	-0.015445521
36	0xbb2976b3	-0.0025858104
37	0x3b44383f	0.0029940752
38	0xbb7a6b17	-0.0038210803
39	0xb98c344c	-0.00026741845
40	0xbb1a6892	-0.0023560864
41	0xbbd0023f	-0.006347924
42	0x3c418699	0.011811876
43	0xbc3b249b	-0.011422302
44	0xbb9ce6ef	-0.0047882716
45	0x3c34f03b	0.0110436035
46	0xbb36e6b5	-0.0027908508
47	0xbcf8a859	-0.030353712
48	0xbb770fc9	-0.0037698618
49	0xbc23d82e	-0.010000272
50	0xbb5c8b58	-0.0033652391
51	0x3b6be052	0.003599186
52	0xbbbadaca	-0.005702351
53	0xba888725	-0.0010416253
54	0xbc9be8cb	-0.019031903
55	0xbabe3e71	-0.0014514459
56	0xbd041f9c	-0.032256708
57	0xbc6fd8cf	-0.014639094
58	0xbbed0ebb	-0.007234422
59	0xbba6879a	-0.005082083
60	0xbc0a2c09	-0.00843335
61	0xbc4f362b	-0.012647192
62	0xbb8c78b9	-0.004286852
63	0xbc941f3b	-0.018081298

sequential/conv1d/Conv1D f4 [64, 1, 3, 40]
0	0x3db3dfac	0.087828964
1	0xbdde4486	-0.108529136
2	0x3c862548	0.016375199
3	0x3dcb0dc6	0.099147364
4	0xbdf257e4	-0.1183317
5	0x3c526ca0	0.012843281
6	0xbd47c076	-0.04876753
7	0xbdd4976c	-0.10380444
8	0x3d9e8382	0.07739927
9	0x3daaa2cc	0.08331832
10	0xbce7208c	-0.028213762
11	0x3c61dac0	0.013785064
12	0xbe066269	-0.13123478
13	0x3cd513b0	0.026010364
14	0x3e09647f	0.13417242
15	0x3e034f3b	0.12823193
16	0xbd7299b0	-0.0592286
17	0x3d900b88	0.070334494
18	0xbba97e00	-0.005172491
19	0x3dbc798a	0.09202869
20	0x3db02d76	0.08602421
21	0x3ca2fee8	0.01989694
22	0x3def2766	0.116774365
23	0x3b252500	0.0025199056
24	0xbcd8dd18	-0.026472613
25	0xbd8724ff	-0.06598853
26	0xbc5c2280	-0.01343596
27	0xbb36a800	-0.0027871132
28	0x3d4d86d8	0.050177425
29	0x3b0e2000	0.0021686554
30	0xbd77960e	-0.060445838
31	0xbd1f28a2	-0.03885711
32	0x3d5fcfb8	0.054641455
33	0xbe0ac7ec	-0.13552827
34	0xbcdf8b2c	-0.027288042
35	0x3d750b0c	0.05982499
36	0xbdca8a72	-0.098896876
37	0x3d25da98	0.04049167
38	0xbc86ff7c	-0.016479246
39	0x3e01a3b3	0.12660103
40	0x3de2441e	0.110481486
41	0x3c460320	0.012085706
42	0xbc59f4c0	-0.013302982
43	0xbd7c7582	-0.0616355
44	0xbd9cae8c	-0.0765048
45	0x3d651fe0	0.0559386
46	0xbe05c296	-0.1306251
47	0xbd8618a1	-0.06547666
48	0xbd6bf6ae	-0.0576083
49	0x3cf121e0	0.029435098
50	0x3deaba5e	0.11461328
51	0xbe08e74d	-0.13369484
52	0x3c7fe1a0	0.015617758
53	0xbddd1176	-0.10794346
54	0xb9faf800	-0.0004786849
55	0x3e04bddb	0.12963049
56	0xbce7e0b0	-0.028305382
57	0x3c7456c0	0.014913261
58	0xbd9093e3	-0.07059457
59	0xbdcb8d6c	-0.099390835
60	0x3d172110	0.036896765
61	0xbbbef460	-0.0058274716
62	0xbe018700	-0.12649155
63	0x3da5681e	0.080764994
64	0x3df6510e	0.12027179
65	0x3df79dba	0.12090631
66	0x3d664ec4	0.05622746
67	0x3dc63230	0.09677541
68	0xbd910c27	-0.07082396
69	0xbda83199	-0.08212585
70	0x3d4e5934	0.05037804
71	0xbdea00ef	-0.11425959
72	0x3cadb5e8	0.021204904
73	0xbba7fb20	-0.005126372
74	0xbde36215	-0.11102692
75	0xbc5d3290	-0.013500825
76	0x3dd15312	0.102209225
77	0x3c23f5c0	0.010007322
78	0x3d10ba04	0.03533365
79	0xbcd32054	-0.025772251
80	0x3d814744	0.06312421
81	0x3cdfeb10	0.027333766
82	0x3dc23a3c	0.094837636
83	0x3d7f020c	0.06225781
84	0x3daf049c	0.08545801
85	0xbdddbbd7	-0.10826843
86	0x3c406d20	0.011744767
87	0xbd86de6a	-0.06585391
88	0xbdde5eda	-0.10857935
89	0x3d6c7a38	0.057733744
90	0xbdc768b6	-0.09736769
91	0x3de7f0ca	0.11325224
92	0xbd8989fe	-0.06715773
93	0x3cce33a0	0.025171101
94	0xbdbeaac6	-0.09309916
95	0x3de678a2	0.11253478
96	0x3d93fb14	0.07225624
97	0xbb91ffc0	-0.0044555366
98	0xbcb55520	-0.022135317
99	0x3d055f5c	0.032561645
100	0xbdd359ce	-0.10319863
101	0xbd8f4286	-0.0699511
102	0x3c352720	0.011056691
103	0xbdffe637	-0.12495082
104	0xbde4f9a6	-0.11180429
105	0xbd0ce86e	-0.03440135
106	0xbd7b11ce	-0.061296277
107	0xbdc20e6e	-0.094754085
108	0x3d843c66	0.064568326
109	0xbdc3e2ff	-0.095647804
110	0x3dbe623a	0.09296079
111	0xbdc920d5	-0.09820715
112	0x3e06c243	0.13160042
113	0x3d3114fc	0.043232903
114	0x3e072389	0.1319715
115	0xbdbb8582	-0.09156324
116	0x3d97ba50	0.07408583
117	0x3c3f6010	0.011680618
118	0xbc95d00c	-0.018287681
119	0x3b8d0d60	0.004304573
120	0x3e0339d8	0.12815034
121	0x3ddae002	0.10687257
122	0xbcc545f8	-0.024081215
123	0xbd1a49bf	-0.037667986
124	0x3cb3d102	0.021950249
125	0x3e63334d	0.22187538
126	0x3e55fc0f	0.20896934
127	0x3d091258	0.03346476
128	0x3dcc9c4d	0.099907495
129	0x3d014c18	0.03156671
130	0xbd921c51	-0.07134307
131	0x3c54f34b	0.012997459
132	0x3c7c30f8	0.015392534
133	0x3b35a16d	0.0027714625
134	0x3e026a72	0.12735918
135	0x3d4b9ddb	0.04971109
136	0xbdb4f8b9	-0.088365026
137	0xbdca26d7	-0.09870689
138	0x3982b52a	0.0002493051
139	0x3e25426d	0.1613862
140	0x3d881fa1	0.06646658
141	0x3e05065c	0.12990707
142	0xbe0f66a5	-0.14004
143	0xbe4f6d70	-0.20256591
144	0x3c8d102f	0.017219631
145	0xbd543c87	-0.051815536
146	0x3da5be65	0.080929555
147	0xbdb02242	-0.08600284
148	0xbdafb589	-0.08579547
149	0xbe208398	-0.15675199
150	0xbe0c5116	-0.13702807
151	0x3d87270a	0.06599243
152	0x3df9ec19	0.12203235
153	0x3dab63ef	0.0836867
154	0xbe5e5804	-0.21713263
155	0xbe25ff34	-0.16210634
156	0xbe1fb9f8	-0.15598285
157	0x3a851fa8	0.0010156529
158	0xbd15bca6	-0.036556862
159	0xbe10606c	-0.14099282
160	0xbbb1bdda	-0.0054242434
161	0x3dee6c01	0.11641694
162	0xbd8768af	-0.06611764
163	0xbcbe6765	-0.023242662
164	0x3d6a0f51	0.057143513
165	0x3e18e9f7	0.14933
166	0x3e1c2763	0.152494
167	0xbd8fe21c	-0.07025549
168	0xbd8e2eec	-0.069425434
169	0x3db4cd02	0.08828165
170	0xbc8cf617	-0.017207189
171	0x3e2299d7	0.15878998
172	0xbabb605b	-0.0014295684
173	0x3de9bec0	0.11413336
174	0xbd552037	-0.052032676
175	0xbe0bfcbf	-0.13670634
176	0xbcd3f471	-0.025873395
177	0x3d93a81e	0.072098
178	0xbe155260	-0.14582205
179	0x3e2ed1db	0.17072241
180	0x3dfa611a	0.12225552
181	0x3dcae9ad	0.09907851
182	0x3de84cf9	0.11342806
183	0xbcec1397	-0.028817935
184	0xbd55d9e8	-0.052209765
185	0xbdc97304	-0.098363906
186	0xbc9cacef	-0.01912543
187	0xbe089d77	-0.13341318
188	0xbd20ec0b	-0.039287608
189	0x3c3c4e7a	0.01149332
190	0xbdf2f5ba	-0.11863275
191	0x3dc4da86	0.096119925
192	0xbde855d9	-0.11344499
193	0xbc84109a	-0.016121197
194	0xbd72ea8a	-0.059305705
195	0x3c99a62b	0.018755993
196	0xbe1876f7	-0.14889131
197	0xbdaba852	-0.08381714
198	0x3c5167c6	0.012781089
199	0xbd7b472d	-0.061347175
200	0xbde5b2bf	-0.11215734
201	0x3d280fd6	0.041030727
202	0x3d66e8d7	0.056374397
203	0xbdff7338	-0.12473148
204	0x3dd2a5e0	0.102855444
205	0x3d4292d7	0.04750332
206	0x3d9d8ec9	0.0769325
207	0x3e030af2	0.12797144
208	0x3dd19d4e	0.102350816
209	0x3db7f55d	0.08982346
210	0x3d990994	0.0747253
211	0x3d7b6d02	0.061383255
212	0x3dc7b9b6	0.097522184
213	0xbd89a06d	-0.06720052
214	0xbe03fe7e	-0.1289005
215	0xbe090626	-0.13381252
216	0x3d363e7f	0.044493195
217	0xbd36abd5	-0.044597466
218	0x3d51ac4f	0.051189717
219	0xbdb1dd44	-0.08684781
220	0x3e2518fb	0.1612281
221	0x3e09759e	0.13423774
222	0x3da3175e	0.07963441
223	0x3c88395a	0.01662891
224	0x3e01d52c	0.12678975
225	0x3c864a4c	0.01639285
226	0x3dbcfb77	0.092276506
227	0xbbee907a	-0.0072804065
228	0x3d4e6cf8	0.05039689
229	0xbe64bc36	-0.22337422
230	0xbd440c55	-0.047863323
231	0xbdd437b5	-0.10362188
232	0x3d0aa2e6	0.03384676
233	0x3ce4676b	0.027881345
234	0xbdd3fead	-0.1035131
235	0xbdbbbb0c	-0.09166536
236	0xbcb5670a	-0.02214386
237	0xbd659e8c	-0.056059405
238	0x3d887254	0.06662431
239	0x3d3c7024	0.046005383
240	0x3d3f919b	0.04676972
241	0xbd3286e9	-0.04358569
242	0xbc8ddb28	-0.017316416
243	0x3df1a982	0.11799909
244	0x3cc20615	0.02368454
245	0x3d8af842	0.06785633
246	0x3da61587	0.08109575
247	0xbd227ab9	-0.03966782
248	0x3c0e7818	0.008695625
249	0x3e01a5a5	0.12660845
250	0x3d71bc38	0.05901739
251	0x3d64840c	0.055789992
252	0x3dc26d26	0.09493475
253	0xbd973f7a	-0.07385154
254	0xbe04ee33	-0.12981491
255	0x3e20f153	0.15717058

sequential/lstm/Read_2/ReadVariableOp f4 [256]
0	0x3b85cf53	0.004083553
1	0x3c95fa2b	0.018307766
2	0x3c0005dd	0.007813898
3	0x3d084dec	0.033277437
4	0xbd24f78e	-0.04027515
5	0x3bbdc6f9	0.0057915417
6	0x3b9c4e0e	0.004770047
7	0x3b2c338a	0.0026275837
8	0x3ba2c6f0	0.004967563
9	0xbb8764fb	-0.004131911
10	0x3cafce10	0.021460563
11	0x3ccb194c	0.024792336
12	0xbc7ed594	-0.015553851
13	0xbc9215f5	-0.017832736
14	0x3c6e7661	0.014554591
15	0x3cb7b25e	0.02242392
16	0x3d2b7baf	0.041866
17	0xb91a4275	-0.00014711342
18	0x3bf919d4	0.007601956
19	0x3cc41d5f	0.023939786
20	0x3c49e5d5	0.012322863
21	0x3cb0b8cb	0.021572491
22	0xbc294bc8	-0.010333009
23	0x3d015ad0	0.031580746
24	0x3ca06003	0.019577032
25	0xbbc07df6	-0.0058743907
26	0x3c9ff570	0.019526213
27	0xbc1ca884	-0.009561662
28	0x3cc611ea	0.024178464
29	0x3d2eaa60	0.04264295
30	0x3c4a5a01	0.01235056
31	0x3c1c2e38	0.009532504
32	0xb96dd1e4	-0.00022680272
33	0x3cc57453	0.02410332
34	0x3be3456f	0.0069357674
35	0x3ca01d4f	0.019545225
36	0x3d8ae967	0.06782799
37	0xbb92b843	-0.004477532
38	0x3c89cbb1	0.01682076
39	0x3c5641e8	0.013077237
40	0x3af3b899	0.0018594443
41	0xbafd5014	-0.0019326233
42	0x3ce78641	0.02826226
43	0x3caedf19	0.021346616
44	0x3ca048b9	0.019565927
45	0x3c599877	0.013280979
46	0xbc9c4782	-0.019077066
47	0x3cfc38cb	0.0307888
48	0x3cc1ec53	0.023672258
49	0x3c68f44b	0.0142184
50	0x3cbb4a6a	0.022862632
51	0x3c9feca4	0.019522019
52	0x3cfa170d	0.03052857
53	0x3cb59f97	0.022170825
54	0x3c6165fe	0.013757227
55	0x3c9cca7f	0.019139526
56	0x3d8fd658	0.07023305
57	0x3c2795ab	0.010228555
58	0x3b4ff171	0.0031729604
59	0xbd49b940	-0.049248934
60	0xbba5921f	-0.0050528194
61	0x3d0582aa	0.032595314
62	0x3d257175	0.040391404
63	0x3d18a4dd	0.0372666
64	0x3f840d76	1.0316608
65	0x3f83498b	1.0256819
66	0x3f8140cc	1.00979
67	0x3f878c2c	1.0589652
68	0x3f8a4775	1.0803057
69	0x3f8150e1	1.0102807
70	0x3f8180e7	1.0117463
71	0x3f7bbd80	0.9833603
72	0x3f840079	1.0312644
73	0x3f83946c	1.027967
74	0x3f83ffd2	1.0312445
75	0x3f87ad5c	1.059978
76	0x3f7e6f61	0.993887
77	0x3f80a935	1.0051638
78	0x3f87fd0e	1.0624101
79	0x3f890ebc	1.0707622
80	0x3f849542	1.035805
81	0x3f80e8ca	1.0071042
82	0x3f83360a	1.0250866
83	0x3f819e8b	1.0126508
84	0x3f811550	1.0084629
85	0x3f78a55d	0.97127324
86	0x3f7fb3de	0.9988383
87	0x3f83ca9f	1.029621
88	0x3f861472	1.047499
89	0x3f7f154f	0.9964189
90	0x3f84804b	1.0351652
91	0x3f8a055d	1.0782887
92	0x3f86f1cc	1.054254
93	0x3f8476fc	1.0348811
94	0x3f82a572	1.020674
95	0x3f82516b	1.0181097
96	0x3f8168ed	1.0110146
97	0x3f8797ab	1.059316
98	0x3f80db8f	1.0067004
99	0x3f7f181b	0.9964616
100	0x3f865eb4	1.0497651
101	0x3f8264a6	1.0186965
102	0x3f81d3b7	1.0142735
103	0x3f80fbc7	1.0076836
104	0x3f814b65	1.0101134
105	0x3f7fa2c9	0.99857765
106	0x3f858e0b	1.0433973
107	0x3f8295ed	1.0202004
108	0x3f82f089	1.0229656
109	0x3f7c7352	0.98613465
110	0x3f8ab1f9	1.0835563
111	0x3f8349e8	1.0256929
112	0x3f827b96	1.0193965
113	0x3f8ab135	1.0835329
114	0x3f830726	1.0236557
115	0x3f867886	1.0505531
116	0x3f81546c	1.0103889
117	0x3f8328c0	1.0246811
118	0x3f830ac0	1.0237656
119	0x3f82dde4	1.0223966
120	0x3f8cf7e8	1.1013155
121	0x3f8050a8	1.0024614
122	0x3f86040c	1.0469985
123	0x3f8682ec	1.0508704
124	0x3f816f1e	1.0112035
125	0x3f84a856	1.0363872
126	0x3f861130	1.0473995
127	0x3f7e2a03	0.99282855
128	0x3c416e19	0.0118060345
129	0xbbacf1d6	-0.0052778525
130	0x3cad182b	0.021129688
131	0xbcf9b2d0	-0.030480772
132	0xbc93c22e	-0.018036928
133	0xbaccf6c9	-0.0015637513
134	0xbc15ed67	-0.009150839
135	0xbb9b4053	-0.0047378927
136	0x3aac2748	0.0013134265
137	0xb9e56868	-0.00043756072
138	0xbca7983b	-0.020458331
139	0xbc5cdde4	-0.013480637
140	0x3c4be827	0.012445486
141	0xbc3a3fc7	-0.011367745
142	0x3c2539ee	0.010084612
143	0xbb406651	-0.002935786
144	0xbd0ab0ea	-0.033860125
145	0xbba76581	-0.0051085358
146	0x3c5f5da9	0.01363317
147	0x3c1ed6db	0.00969478
148	0xbcaee1e3	-0.021347946
149	0x3cbfc1ea	0.023407895
150	0xbca23e5c	-0.019805126
151	0xbb3bbef4	-0.0028647752
152	0x3cad7753	0.021175062
153	0xbc877390	-0.016534597
154	0xba4bc26e	-0.0007772808
155	0xbc04eef7	-0.008113614
156	0xbd3f4b30	-0.046702564
157	0x3bacb313	0.0052703707
158	0x3c8d259d	0.01722985
159	0xbb366750	-0.0027832575
160	0xbc9139a7	-0.017727686
161	0x3d55ff53	0.05224545
162	0x3beffebc	0.007324068
163	0x3c9d14b5	0.019174913
164	0xbd0fa5d9	-0.035070274
165	0x3b50fe45	0.0031889838
166	0x3d0bb991	0.034112517
167	0xbcc641e7	-0.024201347
168	0xbaa7fd9e	-0.0012816673
169	0xbbf87dd7	-0.0075833607
170	0x3c60d138	0.013721757
171	0x3c3437c2	0.010999622
172	0xbb9bf571	-0.0047594835
173	0xbcc4c797	-0.024020953
174	0xbcbfe310	-0.023423702
175	0x3c03230e	0.008003963
176	0x3c8bb0ee	0.01705214
177	0x389dc6cc	7.523372e-05
178	0xbd60077e	-0.054694645
179	0x3cba84f2	0.022768471
180	0x3c9d4b62	0.019200984
181	0x3cc4b220	0.024010718
182	0xbb135213	-0.002247934
183	0x3c1f9762	0.009740682
184	0xbbe8db6f	-0.0071062366
185	0xbbebc98b	-0.0071956567
186	0xbd094ecc	-0.033522412
187	0x3c8418f5	0.016125182
188	0xbca98fc6	-0.02069844
189	0xbc1f38c7	-0.009718127
190	0x3c4ca602	0.012490751
191	0xbcdd4135	-0.027008632
192	0x3bb1884f	0.0054178606
193	0x3ca8bf88	0.020599142
194	0x3c8a83c6	0.016908538
195	0x3d6dd857	0.058067646
196	0x3d6bef19	0.05760107
197	0x3bd54b9f	0.006509259
198	0x3bdd8ffc	0.006761549
199	0xbba42a83	-0.0050099506
200	0x3ccf30a1	0.025291743
201	0xbbf4541b	-0.007456315
202	0x3d0c8e8c	0.03431563
203	0x3d26b37d	0.040698517
204	0xbc4d3dba	-0.012526924
205	0x3a835be4	0.0010021892
206	0x3d07f999	0.03319702
207	0x3d334db9	0.043775294
208	0x3d318437	0.04333898
209	0x3c44aa6d	0.012003523
210	0x3c066ec7	0.008205122
211	0x3cb844db	0.02249377
212	0x3c92abd9	0.017904209
213	0xbc315c32	-0.010825204
214	0x3a565ef5	0.0008177602
215	0x3c823eb5	0.015899042
216	0x3d15a566	0.03653469
217	0xbcf518e8	-0.029919103
218	0x3cd1f43f	0.02562916
219	0x3dbb4c1d	0.09145377
220	0x3cc0ceb9	0.023536073
221	0x3d995050	0.074860215
222	0x3c33cb3f	0.010973751
223	0x3cfc01e4	0.03076262
224	0x3b5ff1fa	0.003417133
225	0x3dcdbb1c	0.10045454
226	0x3b221f93	0.0024738058
227	0x3c424a0f	0.011858477
228	0x3c766006	0.015037542
229	0x3d0ffbe6	0.03515234
230	0x3cd15895	0.025554935
231	0x3c04d553	0.008107501
232	0x3ba57b9c	0.005050136
233	0xbbddfed3	-0.006774762
234	0x3cda0151	0.026611956
235	0x3d0f4fb6	0.034988128
236	0x3ce9f70f	0.02856019
237	0xbcb9452f	-0.022615997
238	0x3da773cd	0.08176384
239	0x3d3cb020	0.046066403
240	0x3d05de1c	0.032682523
241	0x3ce6908f	0.028145103
242	0x3cbfc62b	0.023409924
243	0x3d33cca8	0.043896347
244	0x3c1495e6	0.009068942
245	0x3cc34003	0.023834234
246	0x3c1c2609	0.009530553
247	0x3cd19cf1	0.02558753
248	0x3d638d1e	0.0555545
249	0x3be7f11b	0.0070783026
250	0x3d1607f3	0.036628675
251	0x3d7a782a	0.061149754
252	0x3c66bda0	0.014083296
253	0x3c6fb406	0.014630323
254	0x3d4f9e71	0.05068821
255	0x3b9df942	0.0048209736

sequential/dense/BiasAdd/ReadVariableOp f4 [64]
0	0x3d0d4f2a	0.034499325
1	0x3d3aa3a6	0.045566224
2	0xba5fab75	-0.0008532324
3	0x3d443b36	0.04790803
4	0x3cc711d7	0.024300499
5	0x3d1597e6	0.036521815
6	0xbc922ac9	-0.017842667
7	0xbb80a4de	-0.0039259037
8	0xbba67466	-0.0050797937
9	0x3896d2a4	7.191792e-05
10	0x3ceec952	0.029148731
11	0xbc7821f0	-0.01514481
12	0xbc840018	-0.016113326
13	0xbbc5eaf5	-0.006039972
14	0x3d16343a	0.0366709
15	0x3d009716	0.031394087
16	0x3d0d8994	0.034555033
17	0xbc891f9c	-0.016738705
18	0x3d23af51	0.039962117
19	0x3c417dc3	0.011809769
20	0x3ceaff56	0.028686207
21	0x3c641f7e	0.013923524
22	0x3d152d41	0.03642011
23	0x3c283c34	0.01026826
24	0x3d3ca9cc	0.04606037
25	0x3cea6480	0.028612375
26	0x3b6a2486	0.0035727336
27	0x3d669298	0.056292146
28	0x3cb77a69	0.022397237
29	0x3cab87b2	0.020938728
30	0xbc1b487e	-0.009477733
31	0x3bc14ceb	0.005899062
32	0x3b86d103	0.0041142716
33	0xbd07cf42	-0.03315664
34	0xbb9b331c	-0.0047363173
35	0x3c865829	0.01639946
36	0x3c9a41fe	0.018830296
37	0xbc60ba2d	-0.013716263
38	0xbc883e67	-0.016631318
39	0x3d383eaa	0.044981636
40	0x3c844ad8	0.01614897
41	0x3d4bfdbf	0.049802538
42	0x3cef9ada	0.029248644
43	0x3c1d5008	0.0096016005
44	0x3d8fe156	0.07025401
45	0x3d3fba89	0.046808753
46	0x3d817fd9	0.06323213
47	0x3ca423b3	0.020036554
48	0x3c95171f	0.018199502
49	0x3c863089	0.016380565
50	0x3d45eef6	0.048323594
51	0x3d272dee	0.040815286
52	0x3d0851fc	0.03328131
53	0x3d3a0e66	0.045423888
54	0x3d3f0165	0.04663219
55	0x3d2c1ce7	0.04201975
56	0xbccd4d2a	-0.025061209
57	0x39cfa30f	0.00039603605
58	0x3d31eb60	0.04343736
59	0x3c4c4f66	0.012470102
60	0x3c2305fe	0.009950159
61	0x3d564c51	0.052318875
62	0x3d36ee6e	0.044660978
63	0x3c5087db	0.012727703

sequential/dense_1/BiasAdd/ReadVariableOp f4 [4]
0	0xbcf4c6f3	-0.029880023
1	0x3cc6c06b	0.024261674
2	0x3c391941	0.011297525
3	0xba0ed386	-0.00054483896

sequential/dense/MatMul f4 [64, 64]
0	0xbdacdc7d	-0.08440492
1	0xbdd0dd4e	-0.101984605
2	0x3e06fea1	0.1318307
3	0xbe3a9487	-0.18220721
4	0x3df6d58c	0.120524496
5	0xbe2c3798	-0.16818082
6	0x3cf6f4ee	0.030146088
7	0xbe253c99	-0.16136397
8	0xbe3b6ad1	-0.18302466
9	0xbdbd4076	-0.092408106
10	0x3e04654b	0.12929265
11	0x3dd74f76	0.10513203
12	0xbe222e67	-0.15838014
13	0x3e170cba	0.14750949
14	0xbe18e157	-0.1492971
15	0xbde5f4ae	-0.112283096
16	0xbd7c4706	-0.06159117
17	0x3d6b7aa1	0.057489995
18	0x3dc1b027	0.094574265
19	0x3d266578	0.040624112
20	0x3e05f704	0.1308251
21	0xbe09239b	-0.13392489
22	0x3e0ca4be	0.13734719
23	0xbe2a96b2	-0.16659048
24	0xbc7f412c	-0.015579503
25	0xbe41c4b5	-0.18922694
26	0x3e5e01b7	0.21680342
27	0xbdc05340	-0.09390879
28	0xbe01dbab	-0.12681453
29	0xbe3d234e	-0.18470499
30	0xbe6dbea0	-0.23217249
31	0xbd8dfdd0	-0.069331765
32	0xbe26eaad	-0.16300459
33	0x3d3538bd	0.044243563
34	0x3dd8bcc1	0.10582877
35	0xbcaa5899	-0.0207942
36	0x3da656f1	0.081220515
37	0xbdf177a1	-0.117903955
38	0xbdb11bfe	-0.08647917
39	0x3d44177e	0.047873966
40	0xbd8a8afc	-0.067647904
41	0x3d098bf7	0.033580747
42	0x3d0ab548	0.03386429
43	0x3d9bf0bb	0.07614275
44	0x3df2f408	0.118629515
45	0x3e1a966e	0.15096447
46	0xbc641f47	-0.013923473
47	0xbe672d25	-0.22575815
48	0x3d1a5fa4	0.037688866
49	0x3e0ebeae	0.13939926
50	0x3cd5b8e7	0.026089145
51	0x3e818437	0.25296184
52	0xbd7df4a7	-0.062000897
53	0x3c758f92	0.014987843
54	0xbd880966	-0.066424176
55	0x3ba0091d	0.004883899
56	0x3e5fd60b	0.21858995
57	0xbe411c65	-0.18858488
58	0xbdfa5e9f	-0.12225079
59	0x3e7dcbbb	0.24784748
60	0xbe1e8c21	-0.15483142
61	0xbdd14eb9	-0.10220093
62	0x3e86da2f	0.26338336
63	0x3debccd1	0.11513675
64	0xbcdd9434	-0.027048208
65	0xbe2e33cb	-0.17011945
66	0x3b79aaf9	0.0038096292
67	0xbe8cb922	-0.27484995
68	0x3e4a4830	0.197541
69	0x3e3dbee0	0.18529844
70	0xbcfead5f	-0.03108853
71	0x3d30e62c	0.04318826
72	0x3e1bdf0a	0.15221801
73	0x3d142168	0.03616467
74	0xbe7fc349	-0.24976839
75	0xbe01fa41	-0.1269312
76	0x3d90c794	0.070693165
77	0xbddab03e	-0.10678147
78	0x3e20c23a	0.15699092
79	0x3d5dc579	0.054143403
80	0x3d93ec78	0.07222837
81	0x3e19039b	0.14942782
82	0xbceb0cbf	-0.028692601
83	0xbd9dfb85	-0.07713989
84	0xbdf7fc95	-0.12108723
85	0x3dd149ec	0.102191776
86	0xbe921a28	-0.2853558
87	0xbe5f03fd	-0.21778865
88	0xbd83adc4	-0.064296275
89	0xbd2fdf3f	-0.042937513
90	0xbd055e9d	-0.032560933
91	0x3e5dbc6a	0.21653906
92	0x3d5f7ff2	0.054565378
93	0x3d78deb4	0.06075926
94	0xbe079061	-0.1323867
95	0xbe31fed3	-0.17382364
96	0xbd9bce74	-0.07607737
97	0x3e7f1032	0.24908522
98	0xbddde23b	-0.10834166
99	0xbe269139	-0.16266336
100	0x3ac906e9	0.0015337142
101	0x3e43365e	0.19063708
102	0xbe3c6d9b	-0.18401186
103	0xbe372d39	-0.17888345
104	0xbc816f97	-0.01580028
105	0x3e2030a4	0.15643555
106	0xbe41774d	-0.18893166
107	0x3e471eb4	0.19445306
108	0xbde1ada4	-0.110194474
109	0xbe8619fe	-0.26191705
110	0xbcf51e1c	-0.029921584
111	0xbddd9ff6	-0.10821526
112	0x3dffd0a5	0.12490968
113	0x3e02f659	0.12789287
114	0xbe58d338	-0.21174324
115	0x3e907fda	0.28222543
116	0x3e35639f	0.17713784
117	0x3d8f64c3	0.07001641
118	0x3c92a43f	0.017900584
119	0xbd88deb6	-0.06683104
120	0x3e0d1df2	0.13780954
121	0x3e0db698	0.13839185
122	0xbe97ccc5	-0.29648414
123	0x3df28bac	0.118430465
124	0xbd25fd73	-0.04052491
125	0x3dbd4be6	0.09242992
126	0xbd5f3a02	-0.05449868
127	0x3d165709	0.036704097
128	0xbcc6de40	-0.024275899
129	0x3e5212a0	0.20514917
130	0x3e32c191	0.17456652
131	0xbe444ff9	-0.19171132
132	0xbe19337f	-0.1496105
133	0xbe1f39d9	-0.15549411
134	0xbdb819ca	-0.08989294
135	0xbe3194b1	-0.17341878
136	0xbca2aec7	-0.019858731
137	0xbde4c0db	-0.11169597
138	0x3d0d0738	0.034430712
139	0xbe2d7fab	-0.16943233
140	0x3dfb821d	0.122806765
141	0xbe4ae918	-0.1981548
142	0xbdd742ac	-0.105107635
143	0xbd7fd599	-0.062459562
144	0xbe339316	-0.17536578
145	0xbd69b260	-0.057054877
146	0x3e0cf740	0.13766193
147	0x3dc629af	0.09675919
148	0x3bcdc950	0.006280102
149	0xbdc9bf4b	-0.09850939
150	0x3db9f3bb	0.09079691
151	0x3dbe4502	0.09290506
152	0xbc18a40b	-0.009316455
153	0x3e302faa	0.17205682
154	0x3dcd726e	0.10031591
155	0xbdf5d6ed	-0.120038845
156	0xbdc1c73d	-0.0946183
157	0x3e7949b4	0.24344522
158	0xbd775b1e	-0.06038963
159	0xbd711a9f	-0.05886328
160	0x3db57e29	0.08861954
161	0xbd3ef564	-0.04662074
162	0xbd9013b8	-0.07035011
163	0x3b87a2da	0.0041392865
164	0xbce57642	-0.028010491
165	0x3dd3a148	0.10333496
166	0x3da5f13d	0.08102653
167	0xbdec4415	-0.11536423
168	0x3df42a53	0.11922135
169	0xbd0a4bfb	-0.033763867
170	0x3da63c7c	0.08117005
171	0xbe14e995	-0.1454223
172	0xbd9715e6	-0.07377224
173	0x3da563f9	0.08075709
174	0x3e196c0b	0.14982621
175	0xbe0adfd3	-0.13561945
176	0x3e2339cf	0.15940021
177	0x3d9688c4	0.07350305
178	0x3db320b1	0.0874647
179	0x3e42f760	0.19039679
180	0x3e5551b0	0.20831943
181	0x3da8a5a9	0.08234722
182	0xbdf5224b	-0.119694315
183	0xbdd5e22a	-0.10443528
184	0xbc76321b	-0.0150265945
185	0xbe685c29	-0.22691406
186	0xbd12cc22	-0.035839207
187	0x3e9861fc	0.29762256
188	0xbcd6ad4c	-0.026205681
189	0xbe01aa10	-0.1266253
190	0xbd208139	-0.039185736
191	0x3e6660a7	0.22497807
192	0xbdff768d	-0.12473784
193	0xbe350b05	-0.17679985
194	0x3e544dda	0.20732823
195	0xbdd73829	-0.105087586
196	0xbd6d1b81	-0.057887558
197	0xbd788d88	-0.06068185
198	0xbe34a7d0	-0.1764214
199	0x3cd5b136	0.026085477
200	0xbe0e0bd0	-0.13871694
201	0x3e0e899d	0.13919683
202	0x3e28c6a3	0.16482024
203	0x3e5fc1d6	0.21851286
204	0xbe8c1668	-0.27360845
205	0x3dc597cd	0.09648094
206	0x3e5ae1ba	0.2137517
207	0xbd0bbd82	-0.034116276
208	0x3d16d7bc	0.036826834
209	0xbe8458f7	-0.25849125
210	0x3d1025ff	0.035192486
211	0xbc25a563	-0.010110232
212	0x3e3c4dae	0.18389007
213	0xbe07b3a2	-0.13252118
214	0x3e0ca5e3	0.13735156
215	0x3ddc16b6	0.10746519
216	0x3e3a802a	0.18212953
217	0xbe01847a	-0.12648192
218	0x3e73fc55	0.23826726
219	0xbd05423e	-0.032533877
220	0xbc8e3444	-0.017358907
221	0xbe09c758	-0.1345495
222	0x3e69d00f	0.22833274
223	0x3d819283	0.06326773
224	0x3cbb6b34	0.022878267
225	0xbe445cfc	-0.19176096
226	0x3de4fc53	0.111809395
227	0xbe4dc749	-0.20095553
228	0xbc45c1ed	-0.012070161
229	0x3df92726	0.1216567
230	0x3dccf0c9	0.100068636
231	0xbe3b9957	-0.18320213
232	0x3e5be2da	0.21473256
233	0xbe870775	-0.26372877
234	0xbe26b50a	-0.16279998
235	0xbe35bca3	-0.1774774
236	0x3e0bae82	0.13640788
237	0xbd4a2004	-0.04934694
238	0xbd050666	-0.032476805
239	0x3e357c60	0.17723227
240	0xbe7143f8	-0.23561084
241	0x3c91223d	0.017716521
242	0xbddf44c6	-0.10901789
243	0xbe18b4ea	-0.14912763
244	0xbc1bd9b8	-0.009512357
245	0x3e6cc064	0.23120266
246	0x3df7953b	0.1208901
247	0xbdacb13c	-0.08432242
248	0x3e7abdba	0.24486437
249	0x3e02415e	0.12720248
250	0xbe2a2d4f	-0.16618846
251	0x3dec3a54	0.11534563
252	0x3e6dec44	0.2323466
253	0xbe0db21a	-0.13837472
254	0x3d5b37f3	0.053520154
255	0xbbcd887b	-0.0062723733

sequential/dense_1/MatMul f4 [4, 64]
0	0xbea52147	-0.3225195
1	0xbea52d3a	-0.32261068
2	0xbe6ad454	-0.22932559
3	0xbe56d52d	-0.20979758
4	0x3e89881c	0.26861656
5	0x3d6cd877	0.057823624
6	0xbd3de07b	-0.04635666
7	0xbdf4b96e	-0.119494304
8	0x3e97d5d7	0.29655334
9	0x3c5d84a2	0.013520392
10	0x3e2538b3	0.1613491
11	0x3e9879db	0.29780468
12	0x3cfdee84	0.030997522
13	0x3e1e2860	0.1544509
14	0xbdb6f242	-0.08932926
15	0xbe198a14	-0.14994079
16	0xbe3c90b6	-0.18414578
17	0x3e8ff429	0.28115967
18	0xbdb22768	-0.086989224
19	0xbe6a4dcd	-0.22881241
20	0xbe6a8d38	-0.22905433
21	0xbdcaaccf	-0.09896242
22	0xbe1cf1f6	-0.15326676
23	0xbe82b5a9	-0.2552922
24	0xbe468dd8	-0.19390047
25	0x3e4fc56c	0.20290154
26	0x3cf043b3	0.029329157
27	0xbe463e87	-0.1935979
28	0x3e97d2aa	0.2965291
29	0xbea7af65	-0.32751003
30	0x3e2bc71f	0.16775177
31	0x3e651be1	0.22373916
32	0xbdb09f11	-0.086240895
33	0x3e086938	0.13321388
34	0xbe3ea425	-0.18617304
35	0xbe6d9ab8	-0.23203552
36	0x3d72c877	0.05927321
37	0x3c805ac6	0.015668284
38	0xbdaa570f	-0.08317386
39	0xbe3b0592	-0.18263844
40	0xbddfa400	-0.109199524
41	0x3e2566bd	0.16152473
42	0xbe6a1a31	-0.22861554
43	0x3e890df5	0.2676846
44	0xbeb2cf0f	-0.34923598
45	0x3cf2fa92	0.029660497
46	0xbe850f75	-0.25988355
47	0x3e8afe0f	0.27146956
48	0x3d8574fb	0.06516453
49	0x3e8168ce	0.25275272
50	0x3dd07c6a	0.1017998
51	0xbe961f42	-0.29320723
52	0xbdbb438c	-0.09143743
53	0xbe9c3be6	-0.3051445
54	0xbe32a1ca	-0.1744453
55	0x3e1c2872	0.15249804
56	0x3e6911c1	0.22760679
57	0x3cba6805	0.022754679
58	0xbe8ff5dc	-0.28117263
59	0xbe21d206	-0.15802774
60	0xbddca115	-0.107729115
61	0x3e31ce0d	0.17363758
62	0x3e5440bc	0.20727819
63	0x3e8bf6e2	0.27336794
64	0x3d6ce1a3	0.05783237
65	0x3e1ca10a	0.15295807
66	0xbd981bb2	-0.074271575
67	0xbd02d11a	-0.031937696
68	0x3e41cad2	0.18925026
69	0x3e747929	0.23874344
70	0xbe5e53ec	-0.21711701
71	0xbdccfdfd	-0.10009382
72	0xbe1c3569	-0.1525475
73	0x3d81156f	0.06302916
74	0x3da6d0f3	0.08145323
75	0x3d43846c	0.04773371
76	0x3ca3a0f1	0.019974204
77	0xbc71c3c2	-0.014756145
78	0x3e981f09	0.29711178
79	0xbeb3a52d	-0.35086957
80	0x3e2ac65e	0.16677234
81	0xbd95d664	-0.073162824
82	0x3e618f0f	0.22027229
83	0xbe87c2f9	-0.2651594
84	0x3e56b5f6	0.2096785
85	0x3e6e961f	0.23299454
86	0x3bbad81e	0.0057020327
87	0xbc3e7347	-0.011624164
88	0x3e8ea2a9	0.27858475
89	0x3e979b39	0.29610613
90	0x3d52f50d	0.05150323
91	0xbe03b7a1	-0.12863018
92	0xbe23b5bb	-0.15987293
93	0x3e35a8f7	0.17740236
94	0xbc9cc9df	-0.019139228
95	0x3da85a2c	0.08220324
96	0x3dd59788	0.10429293
97	0xbd721ba2	-0.059108384
98	0xbe70f4f7	-0.23530947
99	0xbe701eed	-0.23449297
100	0xbeb66789	-0.35625866
101	0xbe1ec288	-0.15503895
102	0xbe687249	-0.22699846
103	0x3e8438b6	0.25824517
104	0xbc431713	-0.011907357
105	0x3e24dbe1	0.16099502
106	0xbe70faf2	-0.23533228
107	0xbe50e384	-0.2039929
108	0x3eb3e9f4	0.3513943
109	0x3e8ece8a	0.27891952
110	0x3cc55b4c	0.024091385
111	0x3daed669	0.08536989
112	0x3e801daf	0.25022647
113	0xbe7eafeb	-0.24871795
114	0x3e115742	0.14193442
115	0xbe1c8e63	-0.15288691
116	0x3e41f110	0.18939614
117	0xbea97187	-0.33094427
118	0x3e894e06	0.2681734
119	0x3e76af12	0.24090222
120	0xbe056893	-0.13028173
121	0xbe21a6f0	-0.15786338
122	0x3c96d583	0.018412357
123	0x3e58918d	0.21149273
124	0xbd15b15a	-0.03654609
125	0x3e57c600	0.21071625
126	0x3e0c3950	0.13693738
127	0xbdf5bb8e	-0.11998664
128	0xbe5002c5	-0.20313556
129	0xbe1b41df	-0.15161847
130	0xbe43e392	-0.1912978
131	0x3e2cabe0	0.1686244
132	0x3e022a51	0.12711455
133	0x3ca17bf2	0.019712422
134	0xbeaf08f6	-0.34186524
135	0xbe9125cb	-0.28349146
136	0xbd25b2c4	-0.040453687
137	0x3e59700c	0.21234149
138	0xbe761a26	-0.24033412
139	0xbdc08ca4	-0.09401825
140	0xbcbb3d6e	-0.02285644
141	0xbde64ef2	-0.112455264
142	0xbe7c6703	-0.24648671
143	0x3e6d89a2	0.23197034
144	0xbdcfa7bd	-0.101394154
145	0xbe742bb8	-0.23844802
146	0x3e016aac	0.12638348
147	0xbdb081f0	-0.086185336
148	0x3e18b866	0.14914092
149	0xbe774c29	-0.24150147
150	0x3d3bfa17	0.0458928
151	0x3ea10ad6	0.3145358
152	0x3e0c5d3a	0.13707438
153	0x3e5f8c4a	0.2183086
154	0x3d97e92d	0.074175216
155	0x3c3286a0	0.010896355
156	0x3e88a9ea	0.26692134
157	0xbd44f8cc	-0.048088834
158	0xbcd1bf3f	-0.025603889
159	0xbd815606	-0.06315236
160	0x3de15ee5	0.11004428
161	0xbc72f6d1	-0.014829353
162	0x3d671521	0.056416634
163	0x3df051e7	0.11734372
164	0xbdbbf8a0	-0.09178281
165	0xbe8e74f0	-0.2782359
166	0xbe81b22e	-0.25331253
167	0x3df58a95	0.11989323
168	0x3e5c8fac	0.21539181
169	0xbe98449f	-0.29739854
170	0xbd0602db	-0.032717567
171	0x3e95e187	0.29273626
172	0xbe8cd05b	-0.27502713
173	0x3dac8b21	0.08424974
174	0x3ddedf10	0.108823895
175	0x3e8f0a72	0.27937657
176	0xbe3d6811	-0.1849673
177	0xbe8f0b00	-0.2793808
178	0x3d945210	0.07242215
179	0x3e3b9f6c	0.18322533
180	0xbd7244e2	-0.059147723
181	0x3e4bae7b	0.19890778
182	0xbcc975ae	-0.024592247
183	0xbe6f7181	-0.23383142
184	0x3e33d432	0.17561415
185	0xbe7d41b5	-0.24732096
186	0x3e59c7d9	0.21267642
187	0x3c982243	0.018571025
188	0xbeabbd86	-0.33543032
189	0x3a27f1f1	0.00064065965
190	0xbea9448b	-0.33060107
191	0x3e75f31d	0.24018522
192	0xbdda359b	-0.10654756
193	0x3d4ec820	0.050483823
194	0xbce75be8	-0.028242067
195	0x3ea49628	0.3214581
196	0xbdc57c25	-0.09642819
197	0xbea533da	-0.32266122
198	0xbea184df	-0.31546685
199	0xbe0b6fd5	-0.1361688
200	0xbbc7472e	-0.0060814833
201	0x3d48f91b	0.04906569
202	0xbe1ffef2	-0.15624598
203	0x3e1c46cd	0.15261383
204	0xbe31b18b	-0.17352884
205	0xbd6d4a83	-0.057932388
206	0xbe0983a7	-0.13429128
207	0xbde9e8c2	-0.11421348
208	0x3e0a7dde	0.13524577
209	0x3d8baed7	0.068204574
210	0xbe707a62	-0.23484185
211	0xbe92671c	-0.2859429
212	0x3d91a936	0.071123526
213	0xbe20a6bb	-0.15688603
214	0xbe956a4e	-0.29182667
215	0xbe256a2c	-0.16153783
216	0xbc867eca	-0.01641788
217	0xbea9d358	-0.33169055
218	0xbdfcb6fa	-0.123395875
219	0x3e2bac93	0.1676505
220	0xbe0fdf1f	-0.14049958
221	0x3d13f8e7	0.036126044
222	0xbd8d9b7a	-0.069144204
223	0xbddf53de	-0.10904668
224	0xbe867a6b	-0.26265272
225	0x3e2b400e	0.16723654
226	0xbde07354	-0.10959497
227	0xbe3402c5	-0.17579181
228	0xbe814590	-0.25248384
229	0xbe83d284	-0.25746548
230	0xbe0a09eb	-0.13480346
231	0xbe8a7d21	-0.2704859
232	0xbdb9c733	-0.09071197
233	0xbeb184bb	-0.34671578
234	0x3d9dd90b	0.07707413
235	0xbe0dbe6b	-0.1384217
236	0x3d477aa3	0.04870094
237	0xbe89ad57	-0.2689006
238	0x3e955b12	0.29171044
239	0xbe3f72cb	-0.18696134
240	0x3e066c23	0.13127188
241	0xbe338d12	-0.17534283
242	0xbeb50252	-0.35353333
243	0x3e8a5cc0	0.27023888
244	0x3e330fc2	0.1748648
245	0x3db2ad0e	0.08724414
246	0xbd1bc7e9	-0.038032446
247	0xbe9845d8	-0.29740787
248	0xbe5c9ce6	-0.21544227
249	0x3e31657c	0.1732387
250	0x3e235467	0.15950166
251	0xbe3be427	-0.18348752
252	0x3da4f154	0.08053842
253	0xbeab16d1	-0.33415845
254	0xbe9f1c78	-0.31076407
255	0xbebb8d55	-0.36631265

sequential/lstm/Read_2/ReadVariableOp1 f4 [256]
0	0x3b85cf53	0.004083553
1	0x3c95fa2b	0.018307766
2	0x3c0005dd	0.007813898
3	0x3d084dec	0.033277437
4	0xbd24f78e	-0.04027515
5	0x3bbdc6f9	0.0057915417
6	0x3b9c4e0e	0.004770047
7	0x3b2c338a	0.0026275837
8	0x3ba2c6f0	0.004967563
9	0xbb8764fb	-0.004131911
10	0x3cafce10	0.021460563
11	0x3ccb194c	0.024792336
12	0xbc7ed594	-0.015553851
13	0xbc9215f5	-0.017832736
14	0x3c6e7661	0.014554591
15	0x3cb7b25e	0.02242392
16	0x3d2b7baf	0.041866
17	0xb91a4275	-0.00014711342
18	0x3bf919d4	0.007601956
19	0x3cc41d5f	0.023939786
20	0x3c49e5d5	0.012322863
21	0x3cb0b8cb	0.021572491
22	0xbc294bc8	-0.010333009
23	0x3d015ad0	0.031580746
24	0x3ca06003	0.019577032
25	0xbbc07df6	-0.0058743907
26	0x3c9ff570	0.019526213
27	0xbc1ca884	-0.009561662
28	0x3cc611ea	0.024178464
29	0x3d2eaa60	0.04264295
30	0x3c4a5a01	0.01235056
31	0x3c1c2e38	0.009532504
32	0xb96dd1e4	-0.00022680272
33	0x3cc57453	0.02410332
34	0x3be3456f	0.0069357674
35	0x3ca01d4f	0.019545225
36	0x3d8ae967	0.06782799
37	0xbb92b843	-0.004477532
38	0x3c89cbb1	0.01682076
39	0x3c5641e8	0.013077237
40	0x3af3b899	0.0018594443
41	0xbafd5014	-0.0019326233
42	0x3ce78641	0.02826226
43	0x3caedf19	0.021346616
44	0x3ca048b9	0.019565927
45	0x3c599877	0.013280979
46	0xbc9c4782	-0.019077066
47	0x3cfc38cb	0.0307888
48	0x3cc1ec53	0.023672258
49	0x3c68f44b	0.0142184
50	0x3cbb4a6a	0.022862632
51	0x3c9feca4	0.019522019
52	0x3cfa170d	0.03052857
53	0x3cb59f97	0.022170825
54	0x3c6165fe	0.013757227
55	0x3c9cca7f	0.019139526
56	0x3d8fd658	0.07023305
57	0x3c2795ab	0.010228555
58	0x3b4ff171	0.0031729604
59	0xbd49b940	-0.049248934
60	0xbba5921f	-0.0050528194
61	0x3d0582aa	0.032595314
62	0x3d257175	0.040391404
63	0x3d18a4dd	0.0372666
64	0x3f840d76	1.0316608
65	0x3f83498b	1.0256819
66	0x3f8140cc	1.00979
67	0x3f878c2c	1.0589652
68	0x3f8a4775	1.0803057
69	0x3f8150e1	1.0102807
70	0x3f8180e7	1.0117463
71	0x3f7bbd80	0.9833603
72	0x3f840079	1.0312644
73	0x3f83946c	1.027967
74	0x3f83ffd2	1.0312445
75	0x3f87ad5c	1.059978
76	0x3f7e6f61	0.993887
77	0x3f80a935	1.0051638
78	0x3f87fd0e	1.0624101
79	0x3f890ebc	1.0707622
80	0x3f849542	1.035805
81	0x3f80e8ca	1.0071042
82	0x3f83360a	1.0250866
83	0x3f819e8b	1.0126508
84	0x3f811550	1.0084629
85	0x3f78a55d	0.97127324
86	0x3f7fb3de	0.9988383
87	0x3f83ca9f	1.029621
88	0x3f861472	1.047499
89	0x3f7f154f	0.9964189
90	0x3f84804b	1.0351652
91	0x3f8a055d	1.0782887
92	0x3f86f1cc	1.054254
93	0x3f8476fc	1.0348811
94	0x3f82a572	1.020674
95	0x3f82516b	1.0181097
96	0x3f8168ed	1.0110146
97	0x3f8797ab	1.059316
98	0x3f80db8f	1.0067004
99	0x3f7f181b	0.9964616
100	0x3f865eb4	1.0497651
101	0x3f8264a6	1.0186965
102	0x3f81d3b7	1.0142735
103	0x3f80fbc7	1.0076836
104	0x3f814b65	1.0101134
105	0x3f7fa2c9	0.99857765
106	0x3f858e0b	1.0433973
107	0x3f8295ed	1.0202004
108	0x3f82f089	1.0229656
109	0x3f7c7352	0.98613465
110	0x3f8ab1f9	1.0835563
111	0x3f8349e8	1.0256929
112	0x3f827b96	1.0193965
113	0x3f8ab135	1.0835329
114	0x3f830726	1.0236557
115	0x3f867886	1.0505531
116	0x3f81546c	1.0103889
117	0x3f8328c0	1.0246811
118	0x3f830ac0	1.0237656
119	0x3f82dde4	1.0223966
120	0x3f8cf7e8	1.1013155
121	0x3f8050a8	1.0024614
122	0x3f86040c	1.0469985
123	0x3f8682ec	1.0508704
124	0x3f816f1e	1.0112035
125	0x3f84a856	1.0363872
126	0x3f861130	1.0473995
127	0x3f7e2a03	0.99282855
128	0x3c416e19	0.0118060345
129	0xbbacf1d6	-0.0052778525
130	0x3cad182b	0.021129688
131	0xbcf9b2d0	-0.030480772
132	0xbc93c22e	-0.018036928
133	0xbaccf6c9	-0.0015637513
134	0xbc15ed67	-0.009150839
135	0xbb9b4053	-0.0047378927
136	0x3aac2748	0.0013134265
137	0xb9e56868	-0.00043756072
138	0xbca7983b	-0.020458331
139	0xbc5cdde4	-0.013480637
140	0x3c4be827	0.012445486
141	0xbc3a3fc7	-0.011367745
142	0x3c2539ee	0.010084612
143	0xbb406651	-0.002935786
144	0xbd0ab0ea	-0.033860125
145	0xbba76581	-0.0051085358
146	0x3c5f5da9	0.01363317
147	0x3c1ed6db	0.00969478
148	0xbcaee1e3	-0.021347946
149	0x3cbfc1ea	0.023407895
150	0xbca23e5c	-0.019805126
151	0xbb3bbef4	-0.0028647752
152	0x3cad7753	0.021175062
153	0xbc877390	-0.016534597
154	0xba4bc26e	-0.0007772808
155	0xbc04eef7	-0.008113614
156	0xbd3f4b30	-0.046702564
157	0x3bacb313	0.0052703707
158	0x3c8d259d	0.01722985
159	0xbb366750	-0.0027832575
160	0xbc9139a7	-0.017727686
161	0x3d55ff53	0.05224545
162	0x3beffebc	0.007324068
163	0x3c9d14b5	0.019174913
164	0xbd0fa5d9	-0.035070274
165	0x3b50fe45	0.0031889838
166	0x3d0bb991	0.034112517
167	0xbcc641e7	-0.024201347
168	0xbaa7fd9e	-0.0012816673
169	0xbbf87dd7	-0.0075833607
170	0x3c60d138	0.013721757
171	0x3c3437c2	0.010999622
172	0xbb9bf571	-0.0047594835
173	0xbcc4c797	-0.024020953
174	0xbcbfe310	-0.023423702
175	0x3c03230e	0.008003963
176	0x3c8bb0ee	0.01705214
177	0x389dc6cc	7.523372e-05
178	0xbd60077e	-0.054694645
179	0x3cba84f2	0.022768471
180	0x3c9d4b62	0.019200984
181	0x3cc4b220	0.024010718
182	0xbb135213	-0.002247934
183	0x3c1f9762	0.009740682
184	0xbbe8db6f	-0.0071062366
185	0xbbebc98b	-0.0071956567
186	0xbd094ecc	-0.033522412
187	0x3c8418f5	0.016125182
188	0xbca98fc6	-0.02069844
189	0xbc1f38c7	-0.009718127
190	0x3c4ca602	0.012490751
191	0xbcdd4135	-0.027008632
192	0x3bb1884f	0.0054178606
193	0x3ca8bf88	0.020599142
194	0x3c8a83c6	0.016908538
195	0x3d6dd857	0.058067646
196	0x3d6bef19	0.05760107
197	0x3bd54b9f	0.006509259
198	0x3bdd8ffc	0.006761549
199	0xbba42a83	-0.0050099506
200	0x3ccf30a1	0.025291743
201	0xbbf4541b	-0.007456315
202	0x3d0c8e8c	0.03431563
203	0x3d26b37d	0.040698517
204	0xbc4d3dba	-0.012526924
205	0x3a835be4	0.0010021892
206	0x3d07f999	0.03319702
207	0x3d334db9	0.043775294
208	0x3d318437	0.04333898
209	0x3c44aa6d	0.012003523
210	0x3c066ec7	0.008205122
211	0x3cb844db	0.02249377
212	0x3c92abd9	0.017904209
213	0xbc315c32	-0.010825204
214	0x3a565ef5	0.0008177602
215	0x3c823eb5	0.015899042
216	0x3d15a566	0.03653469
217	0xbcf518e8	-0.029919103
218	0x3cd1f43f	0.02562916
219	0x3dbb4c1d	0.09145377
220	0x3cc0ceb9	0.023536073
221	0x3d995050	0.074860215
222	0x3c33cb3f	0.010973751
223	0x3cfc01e4	0.03076262
224	0x3b5ff1fa	0.003417133
225	0x3dcdbb1c	0.10045454
226	0x3b221f93	0.0024738058
227	0x3c424a0f	0.011858477
228	0x3c766006	0.015037542
229	0x3d0ffbe6	0.03515234
230	0x3cd15895	0.025554935
231	0x3c04d553	0.008107501
232	0x3ba57b9c	0.005050136
233	0xbbddfed3	-0.006774762
234	0x3cda0151	0.026611956
235	0x3d0f4fb6	0.034988128
236	0x3ce9f70f	0.02856019
237	0xbcb9452f	-0.022615997
238	0x3da773cd	0.08176384
239	0x3d3cb020	0.046066403
240	0x3d05de1c	0.032682523
241	0x3ce6908f	0.028145103
242	0x3cbfc62b	0.023409924
243	0x3d33cca8	0.043896347
244	0x3c1495e6	0.009068942
245	0x3cc34003	0.023834234
246	0x3c1c2609	0.009530553
247	0x3cd19cf1	0.02558753
248	0x3d638d1e	0.0555545
249	0x3be7f11b	0.0070783026
250	0x3d1607f3	0.036628675
251	0x3d7a782a	0.061149754
252	0x3c66bda0	0.014083296
253	0x3c6fb406	0.014630323
254	0x3d4f9e71	0.05068821
255	0x3b9df942	0.0048209736

while/MatMul_11 f4 [256, 64]
0	0x3cc37a32	0.023861978
1	0x3d2cbb4d	0.04217081
2	0xbda3590d	-0.079759695
3	0xbe2fc4e2	-0.17164949
4	0xbe0a1300	-0.1348381
5	0x3d58d312	0.052935667
6	0x3d7dd23b	0.06196807
7	0xbb90f155	-0.0044233003
8	0x3d8df3cb	0.069312654
9	0x3c8e0eb7	0.017341001
10	0xbe1c650a	-0.15272918
11	0xbe35877d	-0.17727466
12	0x3d0a66a5	0.033789296
13	0x3cecde85	0.0289147
14	0x3de075c5	0.10959963
15	0x3dda6145	0.10663084
16	0xbd099c8c	-0.03359656
17	0xbde4e785	-0.11176971
18	0xbd1e8389	-0.03869966
19	0xbd4c6048	-0.04989651
20	0x3dc2a9de	0.09505056
21	0xbe083c0b	-0.13304155
22	0xbc6672ab	-0.014065425
23	0xbdf66414	-0.12030807
24	0x3c606e8d	0.013698232
25	0x3d6085d7	0.05481514
26	0x3c399558	0.01132711
27	0xbbb55168	-0.005533386
28	0xbe3bb277	-0.18329798
29	0xbd87999c	-0.066210955
30	0x3db1ddd6	0.0868489
31	0x3c1154f9	0.008870357
32	0xbda6b3b0	-0.081397414
33	0xbd5e2276	-0.054232083
34	0x3ddcf6de	0.10789274
35	0xbd52c0ac	-0.051453277
36	0x3d38515d	0.04499947
37	0xbdc1d5b3	-0.09464588
38	0x3c9741bf	0.018463967
39	0xbd982c69	-0.074303456
40	0xbc89437a	-0.016755808
41	0xbdf9777b	-0.12180992
42	0xbdddac14	-0.10823837
43	0xbdaf4eb9	-0.08559937
44	0x3c2346fb	0.0099656535
45	0x3d71ca43	0.059030782
46	0xbddef5d8	-0.10886735
47	0xbcf1d292	-0.029519353
48	0x3cbf8cfe	0.02338266
49	0x3dc21da4	0.0947831
50	0x3ce4a1a5	0.02790911
51	0x3c9216d9	0.01783316
52	0xbd55d846	-0.052208208
53	0x3d8ee4b2	0.06977214
54	0x3bf0c572	0.007347756
55	0xbd482bf3	-0.04887004
56	0x3e0aba80	0.13547707
57	0x3d1f25aa	0.03885428
58	0xbdb96eb3	-0.09054317
59	0x3e1be085	0.15222366
60	0x3e707406	0.2348176
61	0x3c32a7f5	0.010904302
62	0x3e3200ce	0.1738312
63	0x3dcd803e	0.10034226
64	0x3d58563e	0.052816622
65	0x3b24fbc0	0.0025174469
66	0xbccf9083	-0.025337463
67	0xbd81aed3	-0.06332173
68	0xbb9c804b	-0.004776036
69	0x3da96880	0.08271885
70	0x3caa985a	0.0208246
71	0xbda2b719	-0.07945079
72	0x3da7b1d1	0.08188213
73	0x3da4c7c9	0.080459185
74	0x3d156c2b	0.03648011
75	0x3d0d77a6	0.034537934
76	0xbc6cb229	-0.014446774
77	0xbd9f03fa	-0.0776443
78	0x3c19bc06	0.009383207
79	0x3d199874	0.037498906
80	0x3d1bb89d	0.038017858
81	0x3b999e86	0.004688087
82	0x3da45407	0.080238394
83	0x3bc93e0e	0.0061414307
84	0xbda83c3c	-0.08214614
85	0x3d2d7278	0.042345494
86	0x3d9b5509	0.075845785
87	0xbc3a32ca	-0.011364648
88	0x3c6f0cee	0.014590485
89	0xbd9058cb	-0.07048186
90	0xbd965749	-0.07340867
91	0xbe3619d1	-0.17783286
92	0xbdf1e94b	-0.11812075
93	0xbdf0e58e	-0.11762534
94	0x3cff9676	0.031199675
95	0xbdaeebaf	-0.08541047
96	0xbd550212	-0.052003928
97	0xbe18f455	-0.14936955
98	0xbdf980c5	-0.12182764
99	0xb9b4f786	-0.00034516695
100	0x3be7bc78	0.007072028
101	0xbd859577	-0.06522649
102	0xb9711330	-0.00022990699
103	0xbc4db6bf	-0.012555777
104	0xbd10f35a	-0.035388328
105	0x3d3ec465	0.046574015
106	0xbdbab268	-0.091160595
107	0x3dc67658	0.09690541
108	0x3c8ba43a	0.017046083
109	0x3cf7f116	0.030266326
110	0xbd8cad19	-0.06868953
111	0x3df6f360	0.12058139
112	0x3d04e5b7	0.032445636
113	0x3ce3b0e8	0.027794316
114	0x3db15aa9	0.0865987
115	0xbdba4e6e	-0.090969905
116	0xbd9cf141	-0.07663203
117	0x3e1991c5	0.14997013
118	0x3b20aa65	0.0024515626
119	0x3cc5b0f3	0.024132228
120	0x3da7398d	0.08165274
121	0x3cae3bb4	0.021268703
122	0xbe645438	-0.22297752
123	0x3c25b87c	0.010114785
124	0x3e28b9b0	0.16477084
125	0x3dbc14ee	0.091836795
126	0x3e0014ad	0.12507887
127	0xbcf6d988	-0.030133024
128	0x3c428b49	0.0118740285
129	0xbdc30d28	-0.09523994
130	0x3d22a470	0.0397076
131	0x3ca2ea47	0.019887103
132	0xbc46d068	-0.012134649
133	0x3da6aaca	0.08138044
134	0x3a8bd84e	0.0010669322
135	0x3d4ae6bf	0.049536463
136	0xbe22a759	-0.1588415
137	0x3dcb4854	0.09925905
138	0x3bddf5c9	0.0067736846
139	0x3c82b329	0.01595457
140	0xbc81393b	-0.01577436
141	0xbde6293d	-0.11238334
142	0x3ced84d4	0.028994001
143	0x3db36086	0.08758645
144	0x3ba40a2c	0.0050060954
145	0x3cd2d9c1	0.025738599
146	0xbcbc47c7	-0.022983445
147	0xbd41e5e0	-0.047338367
148	0x3d1f587c	0.038902745
149	0x3c7f94dc	0.015599456
150	0xb9ae9089	-0.00033295553
151	0x3d99f87b	0.07518097
152	0xbdc1d01d	-0.094635226
153	0x3d97a4d8	0.07404488
154	0x3c9ca73d	0.019122714
155	0x3cb1ce57	0.021704836
156	0xbd3a5e61	-0.045500163
157	0x3d888750	0.06666434
158	0xbe0cc03d	-0.13745208
159	0x3ca97847	0.020687236
160	0x3e3c198e	0.18369123
161	0xbddfb00d	-0.10922251
162	0x3d7fd5f0	0.062459886
163	0xbd5bbd1d	-0.05364715
164	0xbbd7f1b7	-0.006590094
165	0x3e25c908	0.16189969
166	0xbdec44a2	-0.11536528
167	0x3dda653f	0.106638424
168	0xbdef9a34	-0.11699334
169	0xbd875cf8	-0.06609529
170	0x3c6de865	0.014520739
171	0x3d679e53	0.056547474
172	0x3e0e6d05	0.13908775
173	0x3caa4093	0.020782745
174	0x3d019ce6	0.03164377
175	0x3d33ba32	0.04387874
176	0xbcf431d1	-0.02980891
177	0x3d152f80	0.036422253
178	0xbd05b872	-0.032646604
179	0x3d5c515d	0.05378853
180	0xbd9ce1b6	-0.076602384
181	0xbba97813	-0.0051717847
182	0xba20c091	-0.000613221
183	0x3e07480f	0.13211082
184	0xbc8510ec	-0.01624342
185	0xbd95c35a	-0.07312651
186	0xbc551222	-0.0130048115
187	0xbcf17512	-0.029474769
188	0x3d63bb5d	0.055598605
189	0x3c86e898	0.016468331
190	0x3daa33ab	0.08310636
191	0x3ccf1554	0.025278725
192	0xbc9a200e	-0.018814113
193	0xbc43dfb8	-0.011955194
194	0xbd0ba0dd	-0.034088958
195	0xbd54bf27	-0.05194011
196	0x3e394af6	0.18095002
197	0x3da50ce4	0.08059099
198	0xbd58d92c	-0.052941486
199	0x3d8a2d14	0.06746879
200	0xbd1eeb57	-0.038798656
201	0x3d9bfab6	0.07616179
202	0x3dea3f08	0.114378035
203	0x3d15ea78	0.03660056
204	0xbd3dd312	-0.04634387
205	0x3cfd7826	0.03094108
206	0x3d633173	0.05546708
207	0x3d7678b9	0.060173724
208	0x3bcd7ebf	0.006271213
209	0xbc667d9b	-0.014068033
210	0xbc9d1d24	-0.019178934
211	0x3ddab95b	0.10679885
212	0x3e322c50	0.17399716
213	0xbdbc732d	-0.092016555
214	0xbdc7a617	-0.09748476
215	0xbe07f4a2	-0.13276914
216	0x3d825297	0.06363409
217	0xbcf7d1f0	-0.030251473
218	0xbd03763b	-0.032095175
219	0x3d987a39	0.07445187
220	0xbdbf7186	-0.09347825
221	0xbd56a66f	-0.052404817
222	0x3c0e63bb	0.00869077
223	0x3d7c36e7	0.061575796
224	0xbd7b6817	-0.061378565
225	0x3d9717f0	0.073776126
226	0x3d4452b2	0.047930427
227	0xbd48e159	-0.049043033
228	0xbc0648b3	-0.008196044
229	0x3e11e61c	0.14247936
230	0x3c8e58f5	0.017376402
231	0xbe08a11f	-0.13342713
232	0x3e0a4a8f	0.13505004
233	0x3dbb4eb7	0.09145873
234	0x3c8ee5d7	0.01744358
235	0xbe251277	-0.16120325
236	0x3d4b3a70	0.049616277
237	0x3d4f65c0	0.050634146
238	0x3dfb2622	0.12263133
239	0x3dcca8a9	0.09993107
240	0x3d8ba495	0.06818501
241	0xbcd3fb7f	-0.025876759
242	0x3956ff3e	0.00020503715
243	0xbd0191bc	-0.031633124
244	0xbd92ff6d	-0.07177625
245	0x3d7c2a9b	0.06156407
246	0xbc9c73da	-0.019098211
247	0xbd8c58f4	-0.06852904
248	0xbdd2d1c6	-0.10293917
249	0xbc3f6df7	-0.0116839325
250	0x3d07a15d	0.033112872
251	0xbde78a38	-0.1130566
252	0x3dc6991d	0.09697173
253	0x3d0ce6d6	0.03439983
254	0x3dbd92aa	0.092564896
255	0x3caf428b	0.021394035
